name: "ResNet101"
layer {
  name: "input-data"
  type: "Python"
  top: "data"
  top: "im_info"
  top: "gt_boxes"
  python_param {
    module: "roi_data_layer.layer"
    layer: "RoIDataLayer"
    param_str: "\'num_classes\': 21"
  }
}
layer {
  name: "conv1"
  type: "Convolution"
  bottom: "data"
  top: "conv1"
  param {
    lr_mult: 0.0
  }
  convolution_param {
    num_output: 64
    bias_term: false
    pad: 3
    kernel_size: 7
    stride: 2
  }
  data_param {
    batch_size: 50
  }
}
layer {
  name: "scale_conv1"
  type: "Scale"
  bottom: "conv1"
  top: "conv1"
  param {
    lr_mult: 0.0
    decay_mult: 0.0
  }
  param {
    lr_mult: 0.0
    decay_mult: 0.0
  }
  scale_param {
    bias_term: true
  }
}
layer {
  name: "conv1_relu"
  type: "ReLU"
  bottom: "conv1"
  top: "conv1"
}
layer {
  name: "pool1"
  type: "Pooling"
  bottom: "conv1"
  top: "pool1"
  pooling_param {
    pool: MAX
    kernel_size: 3
    stride: 2
  }
}
layer {
  name: "res2a_branch1"
  type: "Convolution"
  bottom: "pool1"
  top: "res2a_branch1"
  param {
    lr_mult: 0.0
  }
  convolution_param {
    num_output: 256
    bias_term: false
    pad: 0
    kernel_size: 1
    stride: 1
  }
}
layer {
  name: "scale2a_branch1"
  type: "Scale"
  bottom: "res2a_branch1"
  top: "res2a_branch1"
  param {
    lr_mult: 0.0
    decay_mult: 0.0
  }
  param {
    lr_mult: 0.0
    decay_mult: 0.0
  }
  scale_param {
    bias_term: true
  }
}
layer {
  name: "res2a_branch2a"
  type: "Convolution"
  bottom: "pool1"
  top: "res2a_branch2a"
  param {
    lr_mult: 0.0
  }
  convolution_param {
    num_output: 64
    bias_term: false
    pad: 0
    kernel_size: 1
    stride: 1
  }
}
layer {
  name: "scale2a_branch2a"
  type: "Scale"
  bottom: "res2a_branch2a"
  top: "res2a_branch2a"
  param {
    lr_mult: 0.0
    decay_mult: 0.0
  }
  param {
    lr_mult: 0.0
    decay_mult: 0.0
  }
  scale_param {
    bias_term: true
  }
}
layer {
  name: "res2a_branch2a_relu"
  type: "ReLU"
  bottom: "res2a_branch2a"
  top: "res2a_branch2a"
}
layer {
  name: "res2a_branch2b"
  type: "Convolution"
  bottom: "res2a_branch2a"
  top: "res2a_branch2b"
  param {
    lr_mult: 0.0
  }
  convolution_param {
    num_output: 64
    bias_term: false
    pad: 1
    kernel_size: 3
    stride: 1
  }
}
layer {
  name: "scale2a_branch2b"
  type: "Scale"
  bottom: "res2a_branch2b"
  top: "res2a_branch2b"
  param {
    lr_mult: 0.0
    decay_mult: 0.0
  }
  param {
    lr_mult: 0.0
    decay_mult: 0.0
  }
  scale_param {
    bias_term: true
  }
}
layer {
  name: "res2a_branch2b_relu"
  type: "ReLU"
  bottom: "res2a_branch2b"
  top: "res2a_branch2b"
}
layer {
  name: "res2a_branch2c"
  type: "Convolution"
  bottom: "res2a_branch2b"
  top: "res2a_branch2c"
  param {
    lr_mult: 0.0
  }
  convolution_param {
    num_output: 256
    bias_term: false
    pad: 0
    kernel_size: 1
    stride: 1
  }
}
layer {
  name: "scale2a_branch2c"
  type: "Scale"
  bottom: "res2a_branch2c"
  top: "res2a_branch2c"
  param {
    lr_mult: 0.0
    decay_mult: 0.0
  }
  param {
    lr_mult: 0.0
    decay_mult: 0.0
  }
  scale_param {
    bias_term: true
  }
}
layer {
  name: "res2a"
  type: "Eltwise"
  bottom: "res2a_branch1"
  bottom: "res2a_branch2c"
  top: "res2a"
}
layer {
  name: "res2a_relu"
  type: "ReLU"
  bottom: "res2a"
  top: "res2a"
}
layer {
  name: "res2b_branch2a"
  type: "Convolution"
  bottom: "res2a"
  top: "res2b_branch2a"
  param {
    lr_mult: 0.0
  }
  convolution_param {
    num_output: 64
    bias_term: false
    pad: 0
    kernel_size: 1
    stride: 1
  }
}
layer {
  name: "scale2b_branch2a"
  type: "Scale"
  bottom: "res2b_branch2a"
  top: "res2b_branch2a"
  param {
    lr_mult: 0.0
    decay_mult: 0.0
  }
  param {
    lr_mult: 0.0
    decay_mult: 0.0
  }
  scale_param {
    bias_term: true
  }
}
layer {
  name: "res2b_branch2a_relu"
  type: "ReLU"
  bottom: "res2b_branch2a"
  top: "res2b_branch2a"
}
layer {
  name: "res2b_branch2b"
  type: "Convolution"
  bottom: "res2b_branch2a"
  top: "res2b_branch2b"
  param {
    lr_mult: 0.0
  }
  convolution_param {
    num_output: 64
    bias_term: false
    pad: 1
    kernel_size: 3
    stride: 1
  }
}
layer {
  name: "scale2b_branch2b"
  type: "Scale"
  bottom: "res2b_branch2b"
  top: "res2b_branch2b"
  param {
    lr_mult: 0.0
    decay_mult: 0.0
  }
  param {
    lr_mult: 0.0
    decay_mult: 0.0
  }
  scale_param {
    bias_term: true
  }
}
layer {
  name: "res2b_branch2b_relu"
  type: "ReLU"
  bottom: "res2b_branch2b"
  top: "res2b_branch2b"
}
layer {
  name: "res2b_branch2c"
  type: "Convolution"
  bottom: "res2b_branch2b"
  top: "res2b_branch2c"
  param {
    lr_mult: 0.0
  }
  convolution_param {
    num_output: 256
    bias_term: false
    pad: 0
    kernel_size: 1
    stride: 1
  }
}
layer {
  name: "scale2b_branch2c"
  type: "Scale"
  bottom: "res2b_branch2c"
  top: "res2b_branch2c"
  param {
    lr_mult: 0.0
    decay_mult: 0.0
  }
  param {
    lr_mult: 0.0
    decay_mult: 0.0
  }
  scale_param {
    bias_term: true
  }
}
layer {
  name: "res2b"
  type: "Eltwise"
  bottom: "res2a"
  bottom: "res2b_branch2c"
  top: "res2b"
}
layer {
  name: "res2b_relu"
  type: "ReLU"
  bottom: "res2b"
  top: "res2b"
}
layer {
  name: "res2c_branch2a"
  type: "Convolution"
  bottom: "res2b"
  top: "res2c_branch2a"
  param {
    lr_mult: 0.0
  }
  convolution_param {
    num_output: 64
    bias_term: false
    pad: 0
    kernel_size: 1
    stride: 1
  }
}
layer {
  name: "scale2c_branch2a"
  type: "Scale"
  bottom: "res2c_branch2a"
  top: "res2c_branch2a"
  param {
    lr_mult: 0.0
    decay_mult: 0.0
  }
  param {
    lr_mult: 0.0
    decay_mult: 0.0
  }
  scale_param {
    bias_term: true
  }
}
layer {
  name: "res2c_branch2a_relu"
  type: "ReLU"
  bottom: "res2c_branch2a"
  top: "res2c_branch2a"
}
layer {
  name: "res2c_branch2b"
  type: "Convolution"
  bottom: "res2c_branch2a"
  top: "res2c_branch2b"
  param {
    lr_mult: 0.0
  }
  convolution_param {
    num_output: 64
    bias_term: false
    pad: 1
    kernel_size: 3
    stride: 1
  }
}
layer {
  name: "scale2c_branch2b"
  type: "Scale"
  bottom: "res2c_branch2b"
  top: "res2c_branch2b"
  param {
    lr_mult: 0.0
    decay_mult: 0.0
  }
  param {
    lr_mult: 0.0
    decay_mult: 0.0
  }
  scale_param {
    bias_term: true
  }
}
layer {
  name: "res2c_branch2b_relu"
  type: "ReLU"
  bottom: "res2c_branch2b"
  top: "res2c_branch2b"
}
layer {
  name: "res2c_branch2c"
  type: "Convolution"
  bottom: "res2c_branch2b"
  top: "res2c_branch2c"
  param {
    lr_mult: 0.0
  }
  convolution_param {
    num_output: 256
    bias_term: false
    pad: 0
    kernel_size: 1
    stride: 1
  }
}
layer {
  name: "scale2c_branch2c"
  type: "Scale"
  bottom: "res2c_branch2c"
  top: "res2c_branch2c"
  param {
    lr_mult: 0.0
    decay_mult: 0.0
  }
  param {
    lr_mult: 0.0
    decay_mult: 0.0
  }
  scale_param {
    bias_term: true
  }
}
layer {
  name: "res2c"
  type: "Eltwise"
  bottom: "res2b"
  bottom: "res2c_branch2c"
  top: "res2c"
}
layer {
  name: "res2c_relu"
  type: "ReLU"
  bottom: "res2c"
  top: "res2c"
}
layer {
  name: "res3a_branch1"
  type: "Convolution"
  bottom: "res2c"
  top: "res3a_branch1"
  param {
    lr_mult: 1.0
  }
  convolution_param {
    num_output: 512
    bias_term: false
    pad: 0
    kernel_size: 1
    stride: 2
  }
}
layer {
  name: "scale3a_branch1"
  type: "Scale"
  bottom: "res3a_branch1"
  top: "res3a_branch1"
  param {
    lr_mult: 0.0
    decay_mult: 0.0
  }
  param {
    lr_mult: 0.0
    decay_mult: 0.0
  }
  scale_param {
    bias_term: true
  }
}
layer {
  name: "res3a_branch2a"
  type: "Convolution"
  bottom: "res2c"
  top: "res3a_branch2a"
  param {
    lr_mult: 1.0
  }
  convolution_param {
    num_output: 128
    bias_term: false
    pad: 0
    kernel_size: 1
    stride: 2
  }
}
layer {
  name: "scale3a_branch2a"
  type: "Scale"
  bottom: "res3a_branch2a"
  top: "res3a_branch2a"
  param {
    lr_mult: 0.0
    decay_mult: 0.0
  }
  param {
    lr_mult: 0.0
    decay_mult: 0.0
  }
  scale_param {
    bias_term: true
  }
}
layer {
  name: "res3a_branch2a_relu"
  type: "ReLU"
  bottom: "res3a_branch2a"
  top: "res3a_branch2a"
}
layer {
  name: "res3a_branch2b"
  type: "Convolution"
  bottom: "res3a_branch2a"
  top: "res3a_branch2b"
  param {
    lr_mult: 1.0
  }
  convolution_param {
    num_output: 128
    bias_term: false
    pad: 1
    kernel_size: 3
    stride: 1
  }
}
layer {
  name: "scale3a_branch2b"
  type: "Scale"
  bottom: "res3a_branch2b"
  top: "res3a_branch2b"
  param {
    lr_mult: 0.0
    decay_mult: 0.0
  }
  param {
    lr_mult: 0.0
    decay_mult: 0.0
  }
  scale_param {
    bias_term: true
  }
}
layer {
  name: "res3a_branch2b_relu"
  type: "ReLU"
  bottom: "res3a_branch2b"
  top: "res3a_branch2b"
}
layer {
  name: "res3a_branch2c"
  type: "Convolution"
  bottom: "res3a_branch2b"
  top: "res3a_branch2c"
  param {
    lr_mult: 1.0
  }
  convolution_param {
    num_output: 512
    bias_term: false
    pad: 0
    kernel_size: 1
    stride: 1
  }
}
layer {
  name: "scale3a_branch2c"
  type: "Scale"
  bottom: "res3a_branch2c"
  top: "res3a_branch2c"
  param {
    lr_mult: 0.0
    decay_mult: 0.0
  }
  param {
    lr_mult: 0.0
    decay_mult: 0.0
  }
  scale_param {
    bias_term: true
  }
}
layer {
  name: "res3a"
  type: "Eltwise"
  bottom: "res3a_branch1"
  bottom: "res3a_branch2c"
  top: "res3a"
}
layer {
  name: "res3a_relu"
  type: "ReLU"
  bottom: "res3a"
  top: "res3a"
}
layer {
  name: "res3b1_branch2a"
  type: "Convolution"
  bottom: "res3a"
  top: "res3b1_branch2a"
  param {
    lr_mult: 1.0
  }
  convolution_param {
    num_output: 128
    bias_term: false
    pad: 0
    kernel_size: 1
    stride: 1
  }
}
layer {
  name: "scale3b1_branch2a"
  type: "Scale"
  bottom: "res3b1_branch2a"
  top: "res3b1_branch2a"
  param {
    lr_mult: 0.0
    decay_mult: 0.0
  }
  param {
    lr_mult: 0.0
    decay_mult: 0.0
  }
  scale_param {
    bias_term: true
  }
}
layer {
  name: "res3b1_branch2a_relu"
  type: "ReLU"
  bottom: "res3b1_branch2a"
  top: "res3b1_branch2a"
}
layer {
  name: "res3b1_branch2b"
  type: "Convolution"
  bottom: "res3b1_branch2a"
  top: "res3b1_branch2b"
  param {
    lr_mult: 1.0
  }
  convolution_param {
    num_output: 128
    bias_term: false
    pad: 1
    kernel_size: 3
    stride: 1
  }
}
layer {
  name: "scale3b1_branch2b"
  type: "Scale"
  bottom: "res3b1_branch2b"
  top: "res3b1_branch2b"
  param {
    lr_mult: 0.0
    decay_mult: 0.0
  }
  param {
    lr_mult: 0.0
    decay_mult: 0.0
  }
  scale_param {
    bias_term: true
  }
}
layer {
  name: "res3b1_branch2b_relu"
  type: "ReLU"
  bottom: "res3b1_branch2b"
  top: "res3b1_branch2b"
}
layer {
  name: "res3b1_branch2c"
  type: "Convolution"
  bottom: "res3b1_branch2b"
  top: "res3b1_branch2c"
  param {
    lr_mult: 1.0
  }
  convolution_param {
    num_output: 512
    bias_term: false
    pad: 0
    kernel_size: 1
    stride: 1
  }
}
layer {
  name: "scale3b1_branch2c"
  type: "Scale"
  bottom: "res3b1_branch2c"
  top: "res3b1_branch2c"
  param {
    lr_mult: 0.0
    decay_mult: 0.0
  }
  param {
    lr_mult: 0.0
    decay_mult: 0.0
  }
  scale_param {
    bias_term: true
  }
}
layer {
  name: "res3b1"
  type: "Eltwise"
  bottom: "res3a"
  bottom: "res3b1_branch2c"
  top: "res3b1"
}
layer {
  name: "res3b1_relu"
  type: "ReLU"
  bottom: "res3b1"
  top: "res3b1"
}
layer {
  name: "res3b2_branch2a"
  type: "Convolution"
  bottom: "res3b1"
  top: "res3b2_branch2a"
  param {
    lr_mult: 1.0
  }
  convolution_param {
    num_output: 128
    bias_term: false
    pad: 0
    kernel_size: 1
    stride: 1
  }
}
layer {
  name: "scale3b2_branch2a"
  type: "Scale"
  bottom: "res3b2_branch2a"
  top: "res3b2_branch2a"
  param {
    lr_mult: 0.0
    decay_mult: 0.0
  }
  param {
    lr_mult: 0.0
    decay_mult: 0.0
  }
  scale_param {
    bias_term: true
  }
}
layer {
  name: "res3b2_branch2a_relu"
  type: "ReLU"
  bottom: "res3b2_branch2a"
  top: "res3b2_branch2a"
}
layer {
  name: "res3b2_branch2b"
  type: "Convolution"
  bottom: "res3b2_branch2a"
  top: "res3b2_branch2b"
  param {
    lr_mult: 1.0
  }
  convolution_param {
    num_output: 128
    bias_term: false
    pad: 1
    kernel_size: 3
    stride: 1
  }
}
layer {
  name: "scale3b2_branch2b"
  type: "Scale"
  bottom: "res3b2_branch2b"
  top: "res3b2_branch2b"
  param {
    lr_mult: 0.0
    decay_mult: 0.0
  }
  param {
    lr_mult: 0.0
    decay_mult: 0.0
  }
  scale_param {
    bias_term: true
  }
}
layer {
  name: "res3b2_branch2b_relu"
  type: "ReLU"
  bottom: "res3b2_branch2b"
  top: "res3b2_branch2b"
}
layer {
  name: "res3b2_branch2c"
  type: "Convolution"
  bottom: "res3b2_branch2b"
  top: "res3b2_branch2c"
  param {
    lr_mult: 1.0
  }
  convolution_param {
    num_output: 512
    bias_term: false
    pad: 0
    kernel_size: 1
    stride: 1
  }
}
layer {
  name: "scale3b2_branch2c"
  type: "Scale"
  bottom: "res3b2_branch2c"
  top: "res3b2_branch2c"
  param {
    lr_mult: 0.0
    decay_mult: 0.0
  }
  param {
    lr_mult: 0.0
    decay_mult: 0.0
  }
  scale_param {
    bias_term: true
  }
}
layer {
  name: "res3b2"
  type: "Eltwise"
  bottom: "res3b1"
  bottom: "res3b2_branch2c"
  top: "res3b2"
}
layer {
  name: "res3b2_relu"
  type: "ReLU"
  bottom: "res3b2"
  top: "res3b2"
}
layer {
  name: "res3b3_branch2a"
  type: "Convolution"
  bottom: "res3b2"
  top: "res3b3_branch2a"
  param {
    lr_mult: 1.0
  }
  convolution_param {
    num_output: 128
    bias_term: false
    pad: 0
    kernel_size: 1
    stride: 1
  }
}
layer {
  name: "scale3b3_branch2a"
  type: "Scale"
  bottom: "res3b3_branch2a"
  top: "res3b3_branch2a"
  param {
    lr_mult: 0.0
    decay_mult: 0.0
  }
  param {
    lr_mult: 0.0
    decay_mult: 0.0
  }
  scale_param {
    bias_term: true
  }
}
layer {
  name: "res3b3_branch2a_relu"
  type: "ReLU"
  bottom: "res3b3_branch2a"
  top: "res3b3_branch2a"
}
layer {
  name: "res3b3_branch2b"
  type: "Convolution"
  bottom: "res3b3_branch2a"
  top: "res3b3_branch2b"
  param {
    lr_mult: 1.0
  }
  convolution_param {
    num_output: 128
    bias_term: false
    pad: 1
    kernel_size: 3
    stride: 1
  }
}
layer {
  name: "scale3b3_branch2b"
  type: "Scale"
  bottom: "res3b3_branch2b"
  top: "res3b3_branch2b"
  param {
    lr_mult: 0.0
    decay_mult: 0.0
  }
  param {
    lr_mult: 0.0
    decay_mult: 0.0
  }
  scale_param {
    bias_term: true
  }
}
layer {
  name: "res3b3_branch2b_relu"
  type: "ReLU"
  bottom: "res3b3_branch2b"
  top: "res3b3_branch2b"
}
layer {
  name: "res3b3_branch2c"
  type: "Convolution"
  bottom: "res3b3_branch2b"
  top: "res3b3_branch2c"
  param {
    lr_mult: 1.0
  }
  convolution_param {
    num_output: 512
    bias_term: false
    pad: 0
    kernel_size: 1
    stride: 1
  }
}
layer {
  name: "scale3b3_branch2c"
  type: "Scale"
  bottom: "res3b3_branch2c"
  top: "res3b3_branch2c"
  param {
    lr_mult: 0.0
    decay_mult: 0.0
  }
  param {
    lr_mult: 0.0
    decay_mult: 0.0
  }
  scale_param {
    bias_term: true
  }
}
layer {
  name: "res3b3"
  type: "Eltwise"
  bottom: "res3b2"
  bottom: "res3b3_branch2c"
  top: "res3b3"
}
layer {
  name: "res3b3_relu"
  type: "ReLU"
  bottom: "res3b3"
  top: "res3b3"
}
layer {
  name: "res4a_branch1"
  type: "Convolution"
  bottom: "res3b3"
  top: "res4a_branch1"
  param {
    lr_mult: 1.0
  }
  convolution_param {
    num_output: 1024
    bias_term: false
    pad: 0
    kernel_size: 1
    stride: 2
  }
}
layer {
  name: "scale4a_branch1"
  type: "Scale"
  bottom: "res4a_branch1"
  top: "res4a_branch1"
  param {
    lr_mult: 0.0
    decay_mult: 0.0
  }
  param {
    lr_mult: 0.0
    decay_mult: 0.0
  }
  scale_param {
    bias_term: true
  }
}
layer {
  name: "res4a_branch2a"
  type: "Convolution"
  bottom: "res3b3"
  top: "res4a_branch2a"
  param {
    lr_mult: 1.0
  }
  convolution_param {
    num_output: 256
    bias_term: false
    pad: 0
    kernel_size: 1
    stride: 2
  }
}
layer {
  name: "scale4a_branch2a"
  type: "Scale"
  bottom: "res4a_branch2a"
  top: "res4a_branch2a"
  param {
    lr_mult: 0.0
    decay_mult: 0.0
  }
  param {
    lr_mult: 0.0
    decay_mult: 0.0
  }
  scale_param {
    bias_term: true
  }
}
layer {
  name: "res4a_branch2a_relu"
  type: "ReLU"
  bottom: "res4a_branch2a"
  top: "res4a_branch2a"
}
layer {
  name: "res4a_branch2b"
  type: "Convolution"
  bottom: "res4a_branch2a"
  top: "res4a_branch2b"
  param {
    lr_mult: 1.0
  }
  convolution_param {
    num_output: 256
    bias_term: false
    pad: 1
    kernel_size: 3
    stride: 1
  }
}
layer {
  name: "scale4a_branch2b"
  type: "Scale"
  bottom: "res4a_branch2b"
  top: "res4a_branch2b"
  param {
    lr_mult: 0.0
    decay_mult: 0.0
  }
  param {
    lr_mult: 0.0
    decay_mult: 0.0
  }
  scale_param {
    bias_term: true
  }
}
layer {
  name: "res4a_branch2b_relu"
  type: "ReLU"
  bottom: "res4a_branch2b"
  top: "res4a_branch2b"
}
layer {
  name: "res4a_branch2c"
  type: "Convolution"
  bottom: "res4a_branch2b"
  top: "res4a_branch2c"
  param {
    lr_mult: 1.0
  }
  convolution_param {
    num_output: 1024
    bias_term: false
    pad: 0
    kernel_size: 1
    stride: 1
  }
}
layer {
  name: "scale4a_branch2c"
  type: "Scale"
  bottom: "res4a_branch2c"
  top: "res4a_branch2c"
  param {
    lr_mult: 0.0
    decay_mult: 0.0
  }
  param {
    lr_mult: 0.0
    decay_mult: 0.0
  }
  scale_param {
    bias_term: true
  }
}
layer {
  name: "res4a"
  type: "Eltwise"
  bottom: "res4a_branch1"
  bottom: "res4a_branch2c"
  top: "res4a"
}
layer {
  name: "res4a_relu"
  type: "ReLU"
  bottom: "res4a"
  top: "res4a"
}
layer {
  name: "res4b1_branch2a"
  type: "Convolution"
  bottom: "res4a"
  top: "res4b1_branch2a"
  param {
    lr_mult: 1.0
  }
  convolution_param {
    num_output: 256
    bias_term: false
    pad: 0
    kernel_size: 1
    stride: 1
  }
}
layer {
  name: "scale4b1_branch2a"
  type: "Scale"
  bottom: "res4b1_branch2a"
  top: "res4b1_branch2a"
  param {
    lr_mult: 0.0
    decay_mult: 0.0
  }
  param {
    lr_mult: 0.0
    decay_mult: 0.0
  }
  scale_param {
    bias_term: true
  }
}
layer {
  name: "res4b1_branch2a_relu"
  type: "ReLU"
  bottom: "res4b1_branch2a"
  top: "res4b1_branch2a"
}
layer {
  name: "res4b1_branch2b"
  type: "Convolution"
  bottom: "res4b1_branch2a"
  top: "res4b1_branch2b"
  param {
    lr_mult: 1.0
  }
  convolution_param {
    num_output: 256
    bias_term: false
    pad: 1
    kernel_size: 3
    stride: 1
  }
}
layer {
  name: "scale4b1_branch2b"
  type: "Scale"
  bottom: "res4b1_branch2b"
  top: "res4b1_branch2b"
  param {
    lr_mult: 0.0
    decay_mult: 0.0
  }
  param {
    lr_mult: 0.0
    decay_mult: 0.0
  }
  scale_param {
    bias_term: true
  }
}
layer {
  name: "res4b1_branch2b_relu"
  type: "ReLU"
  bottom: "res4b1_branch2b"
  top: "res4b1_branch2b"
}
layer {
  name: "res4b1_branch2c"
  type: "Convolution"
  bottom: "res4b1_branch2b"
  top: "res4b1_branch2c"
  param {
    lr_mult: 1.0
  }
  convolution_param {
    num_output: 1024
    bias_term: false
    pad: 0
    kernel_size: 1
    stride: 1
  }
}
layer {
  name: "scale4b1_branch2c"
  type: "Scale"
  bottom: "res4b1_branch2c"
  top: "res4b1_branch2c"
  param {
    lr_mult: 0.0
    decay_mult: 0.0
  }
  param {
    lr_mult: 0.0
    decay_mult: 0.0
  }
  scale_param {
    bias_term: true
  }
}
layer {
  name: "res4b1"
  type: "Eltwise"
  bottom: "res4a"
  bottom: "res4b1_branch2c"
  top: "res4b1"
}
layer {
  name: "res4b1_relu"
  type: "ReLU"
  bottom: "res4b1"
  top: "res4b1"
}
layer {
  name: "res4b2_branch2a"
  type: "Convolution"
  bottom: "res4b1"
  top: "res4b2_branch2a"
  param {
    lr_mult: 1.0
  }
  convolution_param {
    num_output: 256
    bias_term: false
    pad: 0
    kernel_size: 1
    stride: 1
  }
}
layer {
  name: "scale4b2_branch2a"
  type: "Scale"
  bottom: "res4b2_branch2a"
  top: "res4b2_branch2a"
  param {
    lr_mult: 0.0
    decay_mult: 0.0
  }
  param {
    lr_mult: 0.0
    decay_mult: 0.0
  }
  scale_param {
    bias_term: true
  }
}
layer {
  name: "res4b2_branch2a_relu"
  type: "ReLU"
  bottom: "res4b2_branch2a"
  top: "res4b2_branch2a"
}
layer {
  name: "res4b2_branch2b"
  type: "Convolution"
  bottom: "res4b2_branch2a"
  top: "res4b2_branch2b"
  param {
    lr_mult: 1.0
  }
  convolution_param {
    num_output: 256
    bias_term: false
    pad: 1
    kernel_size: 3
    stride: 1
  }
}
layer {
  name: "scale4b2_branch2b"
  type: "Scale"
  bottom: "res4b2_branch2b"
  top: "res4b2_branch2b"
  param {
    lr_mult: 0.0
    decay_mult: 0.0
  }
  param {
    lr_mult: 0.0
    decay_mult: 0.0
  }
  scale_param {
    bias_term: true
  }
}
layer {
  name: "res4b2_branch2b_relu"
  type: "ReLU"
  bottom: "res4b2_branch2b"
  top: "res4b2_branch2b"
}
layer {
  name: "res4b2_branch2c"
  type: "Convolution"
  bottom: "res4b2_branch2b"
  top: "res4b2_branch2c"
  param {
    lr_mult: 1.0
  }
  convolution_param {
    num_output: 1024
    bias_term: false
    pad: 0
    kernel_size: 1
    stride: 1
  }
}
layer {
  name: "scale4b2_branch2c"
  type: "Scale"
  bottom: "res4b2_branch2c"
  top: "res4b2_branch2c"
  param {
    lr_mult: 0.0
    decay_mult: 0.0
  }
  param {
    lr_mult: 0.0
    decay_mult: 0.0
  }
  scale_param {
    bias_term: true
  }
}
layer {
  name: "res4b2"
  type: "Eltwise"
  bottom: "res4b1"
  bottom: "res4b2_branch2c"
  top: "res4b2"
}
layer {
  name: "res4b2_relu"
  type: "ReLU"
  bottom: "res4b2"
  top: "res4b2"
}
layer {
  name: "res4b3_branch2a"
  type: "Convolution"
  bottom: "res4b2"
  top: "res4b3_branch2a"
  param {
    lr_mult: 1.0
  }
  convolution_param {
    num_output: 256
    bias_term: false
    pad: 0
    kernel_size: 1
    stride: 1
  }
}
layer {
  name: "scale4b3_branch2a"
  type: "Scale"
  bottom: "res4b3_branch2a"
  top: "res4b3_branch2a"
  param {
    lr_mult: 0.0
    decay_mult: 0.0
  }
  param {
    lr_mult: 0.0
    decay_mult: 0.0
  }
  scale_param {
    bias_term: true
  }
}
layer {
  name: "res4b3_branch2a_relu"
  type: "ReLU"
  bottom: "res4b3_branch2a"
  top: "res4b3_branch2a"
}
layer {
  name: "res4b3_branch2b"
  type: "Convolution"
  bottom: "res4b3_branch2a"
  top: "res4b3_branch2b"
  param {
    lr_mult: 1.0
  }
  convolution_param {
    num_output: 256
    bias_term: false
    pad: 1
    kernel_size: 3
    stride: 1
  }
}
layer {
  name: "scale4b3_branch2b"
  type: "Scale"
  bottom: "res4b3_branch2b"
  top: "res4b3_branch2b"
  param {
    lr_mult: 0.0
    decay_mult: 0.0
  }
  param {
    lr_mult: 0.0
    decay_mult: 0.0
  }
  scale_param {
    bias_term: true
  }
}
layer {
  name: "res4b3_branch2b_relu"
  type: "ReLU"
  bottom: "res4b3_branch2b"
  top: "res4b3_branch2b"
}
layer {
  name: "res4b3_branch2c"
  type: "Convolution"
  bottom: "res4b3_branch2b"
  top: "res4b3_branch2c"
  param {
    lr_mult: 1.0
  }
  convolution_param {
    num_output: 1024
    bias_term: false
    pad: 0
    kernel_size: 1
    stride: 1
  }
}
layer {
  name: "scale4b3_branch2c"
  type: "Scale"
  bottom: "res4b3_branch2c"
  top: "res4b3_branch2c"
  param {
    lr_mult: 0.0
    decay_mult: 0.0
  }
  param {
    lr_mult: 0.0
    decay_mult: 0.0
  }
  scale_param {
    bias_term: true
  }
}
layer {
  name: "res4b3"
  type: "Eltwise"
  bottom: "res4b2"
  bottom: "res4b3_branch2c"
  top: "res4b3"
}
layer {
  name: "res4b3_relu"
  type: "ReLU"
  bottom: "res4b3"
  top: "res4b3"
}
layer {
  name: "res4b4_branch2a"
  type: "Convolution"
  bottom: "res4b3"
  top: "res4b4_branch2a"
  param {
    lr_mult: 1.0
  }
  convolution_param {
    num_output: 256
    bias_term: false
    pad: 0
    kernel_size: 1
    stride: 1
  }
}
layer {
  name: "scale4b4_branch2a"
  type: "Scale"
  bottom: "res4b4_branch2a"
  top: "res4b4_branch2a"
  param {
    lr_mult: 0.0
    decay_mult: 0.0
  }
  param {
    lr_mult: 0.0
    decay_mult: 0.0
  }
  scale_param {
    bias_term: true
  }
}
layer {
  name: "res4b4_branch2a_relu"
  type: "ReLU"
  bottom: "res4b4_branch2a"
  top: "res4b4_branch2a"
}
layer {
  name: "res4b4_branch2b"
  type: "Convolution"
  bottom: "res4b4_branch2a"
  top: "res4b4_branch2b"
  param {
    lr_mult: 1.0
  }
  convolution_param {
    num_output: 256
    bias_term: false
    pad: 1
    kernel_size: 3
    stride: 1
  }
}
layer {
  name: "scale4b4_branch2b"
  type: "Scale"
  bottom: "res4b4_branch2b"
  top: "res4b4_branch2b"
  param {
    lr_mult: 0.0
    decay_mult: 0.0
  }
  param {
    lr_mult: 0.0
    decay_mult: 0.0
  }
  scale_param {
    bias_term: true
  }
}
layer {
  name: "res4b4_branch2b_relu"
  type: "ReLU"
  bottom: "res4b4_branch2b"
  top: "res4b4_branch2b"
}
layer {
  name: "res4b4_branch2c"
  type: "Convolution"
  bottom: "res4b4_branch2b"
  top: "res4b4_branch2c"
  param {
    lr_mult: 1.0
  }
  convolution_param {
    num_output: 1024
    bias_term: false
    pad: 0
    kernel_size: 1
    stride: 1
  }
}
layer {
  name: "scale4b4_branch2c"
  type: "Scale"
  bottom: "res4b4_branch2c"
  top: "res4b4_branch2c"
  param {
    lr_mult: 0.0
    decay_mult: 0.0
  }
  param {
    lr_mult: 0.0
    decay_mult: 0.0
  }
  scale_param {
    bias_term: true
  }
}
layer {
  name: "res4b4"
  type: "Eltwise"
  bottom: "res4b3"
  bottom: "res4b4_branch2c"
  top: "res4b4"
}
layer {
  name: "res4b4_relu"
  type: "ReLU"
  bottom: "res4b4"
  top: "res4b4"
}
layer {
  name: "res4b5_branch2a"
  type: "Convolution"
  bottom: "res4b4"
  top: "res4b5_branch2a"
  param {
    lr_mult: 1.0
  }
  convolution_param {
    num_output: 256
    bias_term: false
    pad: 0
    kernel_size: 1
    stride: 1
  }
}
layer {
  name: "scale4b5_branch2a"
  type: "Scale"
  bottom: "res4b5_branch2a"
  top: "res4b5_branch2a"
  param {
    lr_mult: 0.0
    decay_mult: 0.0
  }
  param {
    lr_mult: 0.0
    decay_mult: 0.0
  }
  scale_param {
    bias_term: true
  }
}
layer {
  name: "res4b5_branch2a_relu"
  type: "ReLU"
  bottom: "res4b5_branch2a"
  top: "res4b5_branch2a"
}
layer {
  name: "res4b5_branch2b"
  type: "Convolution"
  bottom: "res4b5_branch2a"
  top: "res4b5_branch2b"
  param {
    lr_mult: 1.0
  }
  convolution_param {
    num_output: 256
    bias_term: false
    pad: 1
    kernel_size: 3
    stride: 1
  }
}
layer {
  name: "scale4b5_branch2b"
  type: "Scale"
  bottom: "res4b5_branch2b"
  top: "res4b5_branch2b"
  param {
    lr_mult: 0.0
    decay_mult: 0.0
  }
  param {
    lr_mult: 0.0
    decay_mult: 0.0
  }
  scale_param {
    bias_term: true
  }
}
layer {
  name: "res4b5_branch2b_relu"
  type: "ReLU"
  bottom: "res4b5_branch2b"
  top: "res4b5_branch2b"
}
layer {
  name: "res4b5_branch2c"
  type: "Convolution"
  bottom: "res4b5_branch2b"
  top: "res4b5_branch2c"
  param {
    lr_mult: 1.0
  }
  convolution_param {
    num_output: 1024
    bias_term: false
    pad: 0
    kernel_size: 1
    stride: 1
  }
}
layer {
  name: "scale4b5_branch2c"
  type: "Scale"
  bottom: "res4b5_branch2c"
  top: "res4b5_branch2c"
  param {
    lr_mult: 0.0
    decay_mult: 0.0
  }
  param {
    lr_mult: 0.0
    decay_mult: 0.0
  }
  scale_param {
    bias_term: true
  }
}
layer {
  name: "res4b5"
  type: "Eltwise"
  bottom: "res4b4"
  bottom: "res4b5_branch2c"
  top: "res4b5"
}
layer {
  name: "res4b5_relu"
  type: "ReLU"
  bottom: "res4b5"
  top: "res4b5"
}
layer {
  name: "res4b6_branch2a"
  type: "Convolution"
  bottom: "res4b5"
  top: "res4b6_branch2a"
  param {
    lr_mult: 1.0
  }
  convolution_param {
    num_output: 256
    bias_term: false
    pad: 0
    kernel_size: 1
    stride: 1
  }
}
layer {
  name: "scale4b6_branch2a"
  type: "Scale"
  bottom: "res4b6_branch2a"
  top: "res4b6_branch2a"
  param {
    lr_mult: 0.0
    decay_mult: 0.0
  }
  param {
    lr_mult: 0.0
    decay_mult: 0.0
  }
  scale_param {
    bias_term: true
  }
}
layer {
  name: "res4b6_branch2a_relu"
  type: "ReLU"
  bottom: "res4b6_branch2a"
  top: "res4b6_branch2a"
}
layer {
  name: "res4b6_branch2b"
  type: "Convolution"
  bottom: "res4b6_branch2a"
  top: "res4b6_branch2b"
  param {
    lr_mult: 1.0
  }
  convolution_param {
    num_output: 256
    bias_term: false
    pad: 1
    kernel_size: 3
    stride: 1
  }
}
layer {
  name: "scale4b6_branch2b"
  type: "Scale"
  bottom: "res4b6_branch2b"
  top: "res4b6_branch2b"
  param {
    lr_mult: 0.0
    decay_mult: 0.0
  }
  param {
    lr_mult: 0.0
    decay_mult: 0.0
  }
  scale_param {
    bias_term: true
  }
}
layer {
  name: "res4b6_branch2b_relu"
  type: "ReLU"
  bottom: "res4b6_branch2b"
  top: "res4b6_branch2b"
}
layer {
  name: "res4b6_branch2c"
  type: "Convolution"
  bottom: "res4b6_branch2b"
  top: "res4b6_branch2c"
  param {
    lr_mult: 1.0
  }
  convolution_param {
    num_output: 1024
    bias_term: false
    pad: 0
    kernel_size: 1
    stride: 1
  }
}
layer {
  name: "scale4b6_branch2c"
  type: "Scale"
  bottom: "res4b6_branch2c"
  top: "res4b6_branch2c"
  param {
    lr_mult: 0.0
    decay_mult: 0.0
  }
  param {
    lr_mult: 0.0
    decay_mult: 0.0
  }
  scale_param {
    bias_term: true
  }
}
layer {
  name: "res4b6"
  type: "Eltwise"
  bottom: "res4b5"
  bottom: "res4b6_branch2c"
  top: "res4b6"
}
layer {
  name: "res4b6_relu"
  type: "ReLU"
  bottom: "res4b6"
  top: "res4b6"
}
layer {
  name: "res4b7_branch2a"
  type: "Convolution"
  bottom: "res4b6"
  top: "res4b7_branch2a"
  param {
    lr_mult: 1.0
  }
  convolution_param {
    num_output: 256
    bias_term: false
    pad: 0
    kernel_size: 1
    stride: 1
  }
}
layer {
  name: "scale4b7_branch2a"
  type: "Scale"
  bottom: "res4b7_branch2a"
  top: "res4b7_branch2a"
  param {
    lr_mult: 0.0
    decay_mult: 0.0
  }
  param {
    lr_mult: 0.0
    decay_mult: 0.0
  }
  scale_param {
    bias_term: true
  }
}
layer {
  name: "res4b7_branch2a_relu"
  type: "ReLU"
  bottom: "res4b7_branch2a"
  top: "res4b7_branch2a"
}
layer {
  name: "res4b7_branch2b"
  type: "Convolution"
  bottom: "res4b7_branch2a"
  top: "res4b7_branch2b"
  param {
    lr_mult: 1.0
  }
  convolution_param {
    num_output: 256
    bias_term: false
    pad: 1
    kernel_size: 3
    stride: 1
  }
}
layer {
  name: "scale4b7_branch2b"
  type: "Scale"
  bottom: "res4b7_branch2b"
  top: "res4b7_branch2b"
  param {
    lr_mult: 0.0
    decay_mult: 0.0
  }
  param {
    lr_mult: 0.0
    decay_mult: 0.0
  }
  scale_param {
    bias_term: true
  }
}
layer {
  name: "res4b7_branch2b_relu"
  type: "ReLU"
  bottom: "res4b7_branch2b"
  top: "res4b7_branch2b"
}
layer {
  name: "res4b7_branch2c"
  type: "Convolution"
  bottom: "res4b7_branch2b"
  top: "res4b7_branch2c"
  param {
    lr_mult: 1.0
  }
  convolution_param {
    num_output: 1024
    bias_term: false
    pad: 0
    kernel_size: 1
    stride: 1
  }
}
layer {
  name: "scale4b7_branch2c"
  type: "Scale"
  bottom: "res4b7_branch2c"
  top: "res4b7_branch2c"
  param {
    lr_mult: 0.0
    decay_mult: 0.0
  }
  param {
    lr_mult: 0.0
    decay_mult: 0.0
  }
  scale_param {
    bias_term: true
  }
}
layer {
  name: "res4b7"
  type: "Eltwise"
  bottom: "res4b6"
  bottom: "res4b7_branch2c"
  top: "res4b7"
}
layer {
  name: "res4b7_relu"
  type: "ReLU"
  bottom: "res4b7"
  top: "res4b7"
}
layer {
  name: "res4b8_branch2a"
  type: "Convolution"
  bottom: "res4b7"
  top: "res4b8_branch2a"
  param {
    lr_mult: 1.0
  }
  convolution_param {
    num_output: 256
    bias_term: false
    pad: 0
    kernel_size: 1
    stride: 1
  }
}
layer {
  name: "scale4b8_branch2a"
  type: "Scale"
  bottom: "res4b8_branch2a"
  top: "res4b8_branch2a"
  param {
    lr_mult: 0.0
    decay_mult: 0.0
  }
  param {
    lr_mult: 0.0
    decay_mult: 0.0
  }
  scale_param {
    bias_term: true
  }
}
layer {
  name: "res4b8_branch2a_relu"
  type: "ReLU"
  bottom: "res4b8_branch2a"
  top: "res4b8_branch2a"
}
layer {
  name: "res4b8_branch2b"
  type: "Convolution"
  bottom: "res4b8_branch2a"
  top: "res4b8_branch2b"
  param {
    lr_mult: 1.0
  }
  convolution_param {
    num_output: 256
    bias_term: false
    pad: 1
    kernel_size: 3
    stride: 1
  }
}
layer {
  name: "scale4b8_branch2b"
  type: "Scale"
  bottom: "res4b8_branch2b"
  top: "res4b8_branch2b"
  param {
    lr_mult: 0.0
    decay_mult: 0.0
  }
  param {
    lr_mult: 0.0
    decay_mult: 0.0
  }
  scale_param {
    bias_term: true
  }
}
layer {
  name: "res4b8_branch2b_relu"
  type: "ReLU"
  bottom: "res4b8_branch2b"
  top: "res4b8_branch2b"
}
layer {
  name: "res4b8_branch2c"
  type: "Convolution"
  bottom: "res4b8_branch2b"
  top: "res4b8_branch2c"
  param {
    lr_mult: 1.0
  }
  convolution_param {
    num_output: 1024
    bias_term: false
    pad: 0
    kernel_size: 1
    stride: 1
  }
}
layer {
  name: "scale4b8_branch2c"
  type: "Scale"
  bottom: "res4b8_branch2c"
  top: "res4b8_branch2c"
  param {
    lr_mult: 0.0
    decay_mult: 0.0
  }
  param {
    lr_mult: 0.0
    decay_mult: 0.0
  }
  scale_param {
    bias_term: true
  }
}
layer {
  name: "res4b8"
  type: "Eltwise"
  bottom: "res4b7"
  bottom: "res4b8_branch2c"
  top: "res4b8"
}
layer {
  name: "res4b8_relu"
  type: "ReLU"
  bottom: "res4b8"
  top: "res4b8"
}
layer {
  name: "res4b9_branch2a"
  type: "Convolution"
  bottom: "res4b8"
  top: "res4b9_branch2a"
  param {
    lr_mult: 1.0
  }
  convolution_param {
    num_output: 256
    bias_term: false
    pad: 0
    kernel_size: 1
    stride: 1
  }
}
layer {
  name: "scale4b9_branch2a"
  type: "Scale"
  bottom: "res4b9_branch2a"
  top: "res4b9_branch2a"
  param {
    lr_mult: 0.0
    decay_mult: 0.0
  }
  param {
    lr_mult: 0.0
    decay_mult: 0.0
  }
  scale_param {
    bias_term: true
  }
}
layer {
  name: "res4b9_branch2a_relu"
  type: "ReLU"
  bottom: "res4b9_branch2a"
  top: "res4b9_branch2a"
}
layer {
  name: "res4b9_branch2b"
  type: "Convolution"
  bottom: "res4b9_branch2a"
  top: "res4b9_branch2b"
  param {
    lr_mult: 1.0
  }
  convolution_param {
    num_output: 256
    bias_term: false
    pad: 1
    kernel_size: 3
    stride: 1
  }
}
layer {
  name: "scale4b9_branch2b"
  type: "Scale"
  bottom: "res4b9_branch2b"
  top: "res4b9_branch2b"
  param {
    lr_mult: 0.0
    decay_mult: 0.0
  }
  param {
    lr_mult: 0.0
    decay_mult: 0.0
  }
  scale_param {
    bias_term: true
  }
}
layer {
  name: "res4b9_branch2b_relu"
  type: "ReLU"
  bottom: "res4b9_branch2b"
  top: "res4b9_branch2b"
}
layer {
  name: "res4b9_branch2c"
  type: "Convolution"
  bottom: "res4b9_branch2b"
  top: "res4b9_branch2c"
  param {
    lr_mult: 1.0
  }
  convolution_param {
    num_output: 1024
    bias_term: false
    pad: 0
    kernel_size: 1
    stride: 1
  }
}
layer {
  name: "scale4b9_branch2c"
  type: "Scale"
  bottom: "res4b9_branch2c"
  top: "res4b9_branch2c"
  param {
    lr_mult: 0.0
    decay_mult: 0.0
  }
  param {
    lr_mult: 0.0
    decay_mult: 0.0
  }
  scale_param {
    bias_term: true
  }
}
layer {
  name: "res4b9"
  type: "Eltwise"
  bottom: "res4b8"
  bottom: "res4b9_branch2c"
  top: "res4b9"
}
layer {
  name: "res4b9_relu"
  type: "ReLU"
  bottom: "res4b9"
  top: "res4b9"
}
layer {
  name: "res4b10_branch2a"
  type: "Convolution"
  bottom: "res4b9"
  top: "res4b10_branch2a"
  param {
    lr_mult: 1.0
  }
  convolution_param {
    num_output: 256
    bias_term: false
    pad: 0
    kernel_size: 1
    stride: 1
  }
}
layer {
  name: "scale4b10_branch2a"
  type: "Scale"
  bottom: "res4b10_branch2a"
  top: "res4b10_branch2a"
  param {
    lr_mult: 0.0
    decay_mult: 0.0
  }
  param {
    lr_mult: 0.0
    decay_mult: 0.0
  }
  scale_param {
    bias_term: true
  }
}
layer {
  name: "res4b10_branch2a_relu"
  type: "ReLU"
  bottom: "res4b10_branch2a"
  top: "res4b10_branch2a"
}
layer {
  name: "res4b10_branch2b"
  type: "Convolution"
  bottom: "res4b10_branch2a"
  top: "res4b10_branch2b"
  param {
    lr_mult: 1.0
  }
  convolution_param {
    num_output: 256
    bias_term: false
    pad: 1
    kernel_size: 3
    stride: 1
  }
}
layer {
  name: "scale4b10_branch2b"
  type: "Scale"
  bottom: "res4b10_branch2b"
  top: "res4b10_branch2b"
  param {
    lr_mult: 0.0
    decay_mult: 0.0
  }
  param {
    lr_mult: 0.0
    decay_mult: 0.0
  }
  scale_param {
    bias_term: true
  }
}
layer {
  name: "res4b10_branch2b_relu"
  type: "ReLU"
  bottom: "res4b10_branch2b"
  top: "res4b10_branch2b"
}
layer {
  name: "res4b10_branch2c"
  type: "Convolution"
  bottom: "res4b10_branch2b"
  top: "res4b10_branch2c"
  param {
    lr_mult: 1.0
  }
  convolution_param {
    num_output: 1024
    bias_term: false
    pad: 0
    kernel_size: 1
    stride: 1
  }
}
layer {
  name: "scale4b10_branch2c"
  type: "Scale"
  bottom: "res4b10_branch2c"
  top: "res4b10_branch2c"
  param {
    lr_mult: 0.0
    decay_mult: 0.0
  }
  param {
    lr_mult: 0.0
    decay_mult: 0.0
  }
  scale_param {
    bias_term: true
  }
}
layer {
  name: "res4b10"
  type: "Eltwise"
  bottom: "res4b9"
  bottom: "res4b10_branch2c"
  top: "res4b10"
}
layer {
  name: "res4b10_relu"
  type: "ReLU"
  bottom: "res4b10"
  top: "res4b10"
}
layer {
  name: "res4b11_branch2a"
  type: "Convolution"
  bottom: "res4b10"
  top: "res4b11_branch2a"
  param {
    lr_mult: 1.0
  }
  convolution_param {
    num_output: 256
    bias_term: false
    pad: 0
    kernel_size: 1
    stride: 1
  }
}
layer {
  name: "scale4b11_branch2a"
  type: "Scale"
  bottom: "res4b11_branch2a"
  top: "res4b11_branch2a"
  param {
    lr_mult: 0.0
    decay_mult: 0.0
  }
  param {
    lr_mult: 0.0
    decay_mult: 0.0
  }
  scale_param {
    bias_term: true
  }
}
layer {
  name: "res4b11_branch2a_relu"
  type: "ReLU"
  bottom: "res4b11_branch2a"
  top: "res4b11_branch2a"
}
layer {
  name: "res4b11_branch2b"
  type: "Convolution"
  bottom: "res4b11_branch2a"
  top: "res4b11_branch2b"
  param {
    lr_mult: 1.0
  }
  convolution_param {
    num_output: 256
    bias_term: false
    pad: 1
    kernel_size: 3
    stride: 1
  }
}
layer {
  name: "scale4b11_branch2b"
  type: "Scale"
  bottom: "res4b11_branch2b"
  top: "res4b11_branch2b"
  param {
    lr_mult: 0.0
    decay_mult: 0.0
  }
  param {
    lr_mult: 0.0
    decay_mult: 0.0
  }
  scale_param {
    bias_term: true
  }
}
layer {
  name: "res4b11_branch2b_relu"
  type: "ReLU"
  bottom: "res4b11_branch2b"
  top: "res4b11_branch2b"
}
layer {
  name: "res4b11_branch2c"
  type: "Convolution"
  bottom: "res4b11_branch2b"
  top: "res4b11_branch2c"
  param {
    lr_mult: 1.0
  }
  convolution_param {
    num_output: 1024
    bias_term: false
    pad: 0
    kernel_size: 1
    stride: 1
  }
}
layer {
  name: "scale4b11_branch2c"
  type: "Scale"
  bottom: "res4b11_branch2c"
  top: "res4b11_branch2c"
  param {
    lr_mult: 0.0
    decay_mult: 0.0
  }
  param {
    lr_mult: 0.0
    decay_mult: 0.0
  }
  scale_param {
    bias_term: true
  }
}
layer {
  name: "res4b11"
  type: "Eltwise"
  bottom: "res4b10"
  bottom: "res4b11_branch2c"
  top: "res4b11"
}
layer {
  name: "res4b11_relu"
  type: "ReLU"
  bottom: "res4b11"
  top: "res4b11"
}
layer {
  name: "res4b12_branch2a"
  type: "Convolution"
  bottom: "res4b11"
  top: "res4b12_branch2a"
  param {
    lr_mult: 1.0
  }
  convolution_param {
    num_output: 256
    bias_term: false
    pad: 0
    kernel_size: 1
    stride: 1
  }
}
layer {
  name: "scale4b12_branch2a"
  type: "Scale"
  bottom: "res4b12_branch2a"
  top: "res4b12_branch2a"
  param {
    lr_mult: 0.0
    decay_mult: 0.0
  }
  param {
    lr_mult: 0.0
    decay_mult: 0.0
  }
  scale_param {
    bias_term: true
  }
}
layer {
  name: "res4b12_branch2a_relu"
  type: "ReLU"
  bottom: "res4b12_branch2a"
  top: "res4b12_branch2a"
}
layer {
  name: "res4b12_branch2b"
  type: "Convolution"
  bottom: "res4b12_branch2a"
  top: "res4b12_branch2b"
  param {
    lr_mult: 1.0
  }
  convolution_param {
    num_output: 256
    bias_term: false
    pad: 1
    kernel_size: 3
    stride: 1
  }
}
layer {
  name: "scale4b12_branch2b"
  type: "Scale"
  bottom: "res4b12_branch2b"
  top: "res4b12_branch2b"
  param {
    lr_mult: 0.0
    decay_mult: 0.0
  }
  param {
    lr_mult: 0.0
    decay_mult: 0.0
  }
  scale_param {
    bias_term: true
  }
}
layer {
  name: "res4b12_branch2b_relu"
  type: "ReLU"
  bottom: "res4b12_branch2b"
  top: "res4b12_branch2b"
}
layer {
  name: "res4b12_branch2c"
  type: "Convolution"
  bottom: "res4b12_branch2b"
  top: "res4b12_branch2c"
  param {
    lr_mult: 1.0
  }
  convolution_param {
    num_output: 1024
    bias_term: false
    pad: 0
    kernel_size: 1
    stride: 1
  }
}
layer {
  name: "scale4b12_branch2c"
  type: "Scale"
  bottom: "res4b12_branch2c"
  top: "res4b12_branch2c"
  param {
    lr_mult: 0.0
    decay_mult: 0.0
  }
  param {
    lr_mult: 0.0
    decay_mult: 0.0
  }
  scale_param {
    bias_term: true
  }
}
layer {
  name: "res4b12"
  type: "Eltwise"
  bottom: "res4b11"
  bottom: "res4b12_branch2c"
  top: "res4b12"
}
layer {
  name: "res4b12_relu"
  type: "ReLU"
  bottom: "res4b12"
  top: "res4b12"
}
layer {
  name: "res4b13_branch2a"
  type: "Convolution"
  bottom: "res4b12"
  top: "res4b13_branch2a"
  param {
    lr_mult: 1.0
  }
  convolution_param {
    num_output: 256
    bias_term: false
    pad: 0
    kernel_size: 1
    stride: 1
  }
}
layer {
  name: "scale4b13_branch2a"
  type: "Scale"
  bottom: "res4b13_branch2a"
  top: "res4b13_branch2a"
  param {
    lr_mult: 0.0
    decay_mult: 0.0
  }
  param {
    lr_mult: 0.0
    decay_mult: 0.0
  }
  scale_param {
    bias_term: true
  }
}
layer {
  name: "res4b13_branch2a_relu"
  type: "ReLU"
  bottom: "res4b13_branch2a"
  top: "res4b13_branch2a"
}
layer {
  name: "res4b13_branch2b"
  type: "Convolution"
  bottom: "res4b13_branch2a"
  top: "res4b13_branch2b"
  param {
    lr_mult: 1.0
  }
  convolution_param {
    num_output: 256
    bias_term: false
    pad: 1
    kernel_size: 3
    stride: 1
  }
}
layer {
  name: "scale4b13_branch2b"
  type: "Scale"
  bottom: "res4b13_branch2b"
  top: "res4b13_branch2b"
  param {
    lr_mult: 0.0
    decay_mult: 0.0
  }
  param {
    lr_mult: 0.0
    decay_mult: 0.0
  }
  scale_param {
    bias_term: true
  }
}
layer {
  name: "res4b13_branch2b_relu"
  type: "ReLU"
  bottom: "res4b13_branch2b"
  top: "res4b13_branch2b"
}
layer {
  name: "res4b13_branch2c"
  type: "Convolution"
  bottom: "res4b13_branch2b"
  top: "res4b13_branch2c"
  param {
    lr_mult: 1.0
  }
  convolution_param {
    num_output: 1024
    bias_term: false
    pad: 0
    kernel_size: 1
    stride: 1
  }
}
layer {
  name: "scale4b13_branch2c"
  type: "Scale"
  bottom: "res4b13_branch2c"
  top: "res4b13_branch2c"
  param {
    lr_mult: 0.0
    decay_mult: 0.0
  }
  param {
    lr_mult: 0.0
    decay_mult: 0.0
  }
  scale_param {
    bias_term: true
  }
}
layer {
  name: "res4b13"
  type: "Eltwise"
  bottom: "res4b12"
  bottom: "res4b13_branch2c"
  top: "res4b13"
}
layer {
  name: "res4b13_relu"
  type: "ReLU"
  bottom: "res4b13"
  top: "res4b13"
}
layer {
  name: "res4b14_branch2a"
  type: "Convolution"
  bottom: "res4b13"
  top: "res4b14_branch2a"
  param {
    lr_mult: 1.0
  }
  convolution_param {
    num_output: 256
    bias_term: false
    pad: 0
    kernel_size: 1
    stride: 1
  }
}
layer {
  name: "scale4b14_branch2a"
  type: "Scale"
  bottom: "res4b14_branch2a"
  top: "res4b14_branch2a"
  param {
    lr_mult: 0.0
    decay_mult: 0.0
  }
  param {
    lr_mult: 0.0
    decay_mult: 0.0
  }
  scale_param {
    bias_term: true
  }
}
layer {
  name: "res4b14_branch2a_relu"
  type: "ReLU"
  bottom: "res4b14_branch2a"
  top: "res4b14_branch2a"
}
layer {
  name: "res4b14_branch2b"
  type: "Convolution"
  bottom: "res4b14_branch2a"
  top: "res4b14_branch2b"
  param {
    lr_mult: 1.0
  }
  convolution_param {
    num_output: 256
    bias_term: false
    pad: 1
    kernel_size: 3
    stride: 1
  }
}
layer {
  name: "scale4b14_branch2b"
  type: "Scale"
  bottom: "res4b14_branch2b"
  top: "res4b14_branch2b"
  param {
    lr_mult: 0.0
    decay_mult: 0.0
  }
  param {
    lr_mult: 0.0
    decay_mult: 0.0
  }
  scale_param {
    bias_term: true
  }
}
layer {
  name: "res4b14_branch2b_relu"
  type: "ReLU"
  bottom: "res4b14_branch2b"
  top: "res4b14_branch2b"
}
layer {
  name: "res4b14_branch2c"
  type: "Convolution"
  bottom: "res4b14_branch2b"
  top: "res4b14_branch2c"
  param {
    lr_mult: 1.0
  }
  convolution_param {
    num_output: 1024
    bias_term: false
    pad: 0
    kernel_size: 1
    stride: 1
  }
}
layer {
  name: "scale4b14_branch2c"
  type: "Scale"
  bottom: "res4b14_branch2c"
  top: "res4b14_branch2c"
  param {
    lr_mult: 0.0
    decay_mult: 0.0
  }
  param {
    lr_mult: 0.0
    decay_mult: 0.0
  }
  scale_param {
    bias_term: true
  }
}
layer {
  name: "res4b14"
  type: "Eltwise"
  bottom: "res4b13"
  bottom: "res4b14_branch2c"
  top: "res4b14"
}
layer {
  name: "res4b14_relu"
  type: "ReLU"
  bottom: "res4b14"
  top: "res4b14"
}
layer {
  name: "res4b15_branch2a"
  type: "Convolution"
  bottom: "res4b14"
  top: "res4b15_branch2a"
  param {
    lr_mult: 1.0
  }
  convolution_param {
    num_output: 256
    bias_term: false
    pad: 0
    kernel_size: 1
    stride: 1
  }
}
layer {
  name: "scale4b15_branch2a"
  type: "Scale"
  bottom: "res4b15_branch2a"
  top: "res4b15_branch2a"
  param {
    lr_mult: 0.0
    decay_mult: 0.0
  }
  param {
    lr_mult: 0.0
    decay_mult: 0.0
  }
  scale_param {
    bias_term: true
  }
}
layer {
  name: "res4b15_branch2a_relu"
  type: "ReLU"
  bottom: "res4b15_branch2a"
  top: "res4b15_branch2a"
}
layer {
  name: "res4b15_branch2b"
  type: "Convolution"
  bottom: "res4b15_branch2a"
  top: "res4b15_branch2b"
  param {
    lr_mult: 1.0
  }
  convolution_param {
    num_output: 256
    bias_term: false
    pad: 1
    kernel_size: 3
    stride: 1
  }
}
layer {
  name: "scale4b15_branch2b"
  type: "Scale"
  bottom: "res4b15_branch2b"
  top: "res4b15_branch2b"
  param {
    lr_mult: 0.0
    decay_mult: 0.0
  }
  param {
    lr_mult: 0.0
    decay_mult: 0.0
  }
  scale_param {
    bias_term: true
  }
}
layer {
  name: "res4b15_branch2b_relu"
  type: "ReLU"
  bottom: "res4b15_branch2b"
  top: "res4b15_branch2b"
}
layer {
  name: "res4b15_branch2c"
  type: "Convolution"
  bottom: "res4b15_branch2b"
  top: "res4b15_branch2c"
  param {
    lr_mult: 1.0
  }
  convolution_param {
    num_output: 1024
    bias_term: false
    pad: 0
    kernel_size: 1
    stride: 1
  }
}
layer {
  name: "scale4b15_branch2c"
  type: "Scale"
  bottom: "res4b15_branch2c"
  top: "res4b15_branch2c"
  param {
    lr_mult: 0.0
    decay_mult: 0.0
  }
  param {
    lr_mult: 0.0
    decay_mult: 0.0
  }
  scale_param {
    bias_term: true
  }
}
layer {
  name: "res4b15"
  type: "Eltwise"
  bottom: "res4b14"
  bottom: "res4b15_branch2c"
  top: "res4b15"
}
layer {
  name: "res4b15_relu"
  type: "ReLU"
  bottom: "res4b15"
  top: "res4b15"
}
layer {
  name: "res4b16_branch2a"
  type: "Convolution"
  bottom: "res4b15"
  top: "res4b16_branch2a"
  param {
    lr_mult: 1.0
  }
  convolution_param {
    num_output: 256
    bias_term: false
    pad: 0
    kernel_size: 1
    stride: 1
  }
}
layer {
  name: "scale4b16_branch2a"
  type: "Scale"
  bottom: "res4b16_branch2a"
  top: "res4b16_branch2a"
  param {
    lr_mult: 0.0
    decay_mult: 0.0
  }
  param {
    lr_mult: 0.0
    decay_mult: 0.0
  }
  scale_param {
    bias_term: true
  }
}
layer {
  name: "res4b16_branch2a_relu"
  type: "ReLU"
  bottom: "res4b16_branch2a"
  top: "res4b16_branch2a"
}
layer {
  name: "res4b16_branch2b"
  type: "Convolution"
  bottom: "res4b16_branch2a"
  top: "res4b16_branch2b"
  param {
    lr_mult: 1.0
  }
  convolution_param {
    num_output: 256
    bias_term: false
    pad: 1
    kernel_size: 3
    stride: 1
  }
}
layer {
  name: "scale4b16_branch2b"
  type: "Scale"
  bottom: "res4b16_branch2b"
  top: "res4b16_branch2b"
  param {
    lr_mult: 0.0
    decay_mult: 0.0
  }
  param {
    lr_mult: 0.0
    decay_mult: 0.0
  }
  scale_param {
    bias_term: true
  }
}
layer {
  name: "res4b16_branch2b_relu"
  type: "ReLU"
  bottom: "res4b16_branch2b"
  top: "res4b16_branch2b"
}
layer {
  name: "res4b16_branch2c"
  type: "Convolution"
  bottom: "res4b16_branch2b"
  top: "res4b16_branch2c"
  param {
    lr_mult: 1.0
  }
  convolution_param {
    num_output: 1024
    bias_term: false
    pad: 0
    kernel_size: 1
    stride: 1
  }
}
layer {
  name: "scale4b16_branch2c"
  type: "Scale"
  bottom: "res4b16_branch2c"
  top: "res4b16_branch2c"
  param {
    lr_mult: 0.0
    decay_mult: 0.0
  }
  param {
    lr_mult: 0.0
    decay_mult: 0.0
  }
  scale_param {
    bias_term: true
  }
}
layer {
  name: "res4b16"
  type: "Eltwise"
  bottom: "res4b15"
  bottom: "res4b16_branch2c"
  top: "res4b16"
}
layer {
  name: "res4b16_relu"
  type: "ReLU"
  bottom: "res4b16"
  top: "res4b16"
}
layer {
  name: "res4b17_branch2a"
  type: "Convolution"
  bottom: "res4b16"
  top: "res4b17_branch2a"
  param {
    lr_mult: 1.0
  }
  convolution_param {
    num_output: 256
    bias_term: false
    pad: 0
    kernel_size: 1
    stride: 1
  }
}
layer {
  name: "scale4b17_branch2a"
  type: "Scale"
  bottom: "res4b17_branch2a"
  top: "res4b17_branch2a"
  param {
    lr_mult: 0.0
    decay_mult: 0.0
  }
  param {
    lr_mult: 0.0
    decay_mult: 0.0
  }
  scale_param {
    bias_term: true
  }
}
layer {
  name: "res4b17_branch2a_relu"
  type: "ReLU"
  bottom: "res4b17_branch2a"
  top: "res4b17_branch2a"
}
layer {
  name: "res4b17_branch2b"
  type: "Convolution"
  bottom: "res4b17_branch2a"
  top: "res4b17_branch2b"
  param {
    lr_mult: 1.0
  }
  convolution_param {
    num_output: 256
    bias_term: false
    pad: 1
    kernel_size: 3
    stride: 1
  }
}
layer {
  name: "scale4b17_branch2b"
  type: "Scale"
  bottom: "res4b17_branch2b"
  top: "res4b17_branch2b"
  param {
    lr_mult: 0.0
    decay_mult: 0.0
  }
  param {
    lr_mult: 0.0
    decay_mult: 0.0
  }
  scale_param {
    bias_term: true
  }
}
layer {
  name: "res4b17_branch2b_relu"
  type: "ReLU"
  bottom: "res4b17_branch2b"
  top: "res4b17_branch2b"
}
layer {
  name: "res4b17_branch2c"
  type: "Convolution"
  bottom: "res4b17_branch2b"
  top: "res4b17_branch2c"
  param {
    lr_mult: 1.0
  }
  convolution_param {
    num_output: 1024
    bias_term: false
    pad: 0
    kernel_size: 1
    stride: 1
  }
}
layer {
  name: "scale4b17_branch2c"
  type: "Scale"
  bottom: "res4b17_branch2c"
  top: "res4b17_branch2c"
  param {
    lr_mult: 0.0
    decay_mult: 0.0
  }
  param {
    lr_mult: 0.0
    decay_mult: 0.0
  }
  scale_param {
    bias_term: true
  }
}
layer {
  name: "res4b17"
  type: "Eltwise"
  bottom: "res4b16"
  bottom: "res4b17_branch2c"
  top: "res4b17"
}
layer {
  name: "res4b17_relu"
  type: "ReLU"
  bottom: "res4b17"
  top: "res4b17"
}
layer {
  name: "res4b18_branch2a"
  type: "Convolution"
  bottom: "res4b17"
  top: "res4b18_branch2a"
  param {
    lr_mult: 1.0
  }
  convolution_param {
    num_output: 256
    bias_term: false
    pad: 0
    kernel_size: 1
    stride: 1
  }
}
layer {
  name: "scale4b18_branch2a"
  type: "Scale"
  bottom: "res4b18_branch2a"
  top: "res4b18_branch2a"
  param {
    lr_mult: 0.0
    decay_mult: 0.0
  }
  param {
    lr_mult: 0.0
    decay_mult: 0.0
  }
  scale_param {
    bias_term: true
  }
}
layer {
  name: "res4b18_branch2a_relu"
  type: "ReLU"
  bottom: "res4b18_branch2a"
  top: "res4b18_branch2a"
}
layer {
  name: "res4b18_branch2b"
  type: "Convolution"
  bottom: "res4b18_branch2a"
  top: "res4b18_branch2b"
  param {
    lr_mult: 1.0
  }
  convolution_param {
    num_output: 256
    bias_term: false
    pad: 1
    kernel_size: 3
    stride: 1
  }
}
layer {
  name: "scale4b18_branch2b"
  type: "Scale"
  bottom: "res4b18_branch2b"
  top: "res4b18_branch2b"
  param {
    lr_mult: 0.0
    decay_mult: 0.0
  }
  param {
    lr_mult: 0.0
    decay_mult: 0.0
  }
  scale_param {
    bias_term: true
  }
}
layer {
  name: "res4b18_branch2b_relu"
  type: "ReLU"
  bottom: "res4b18_branch2b"
  top: "res4b18_branch2b"
}
layer {
  name: "res4b18_branch2c"
  type: "Convolution"
  bottom: "res4b18_branch2b"
  top: "res4b18_branch2c"
  param {
    lr_mult: 1.0
  }
  convolution_param {
    num_output: 1024
    bias_term: false
    pad: 0
    kernel_size: 1
    stride: 1
  }
}
layer {
  name: "scale4b18_branch2c"
  type: "Scale"
  bottom: "res4b18_branch2c"
  top: "res4b18_branch2c"
  param {
    lr_mult: 0.0
    decay_mult: 0.0
  }
  param {
    lr_mult: 0.0
    decay_mult: 0.0
  }
  scale_param {
    bias_term: true
  }
}
layer {
  name: "res4b18"
  type: "Eltwise"
  bottom: "res4b17"
  bottom: "res4b18_branch2c"
  top: "res4b18"
}
layer {
  name: "res4b18_relu"
  type: "ReLU"
  bottom: "res4b18"
  top: "res4b18"
}
layer {
  name: "res4b19_branch2a"
  type: "Convolution"
  bottom: "res4b18"
  top: "res4b19_branch2a"
  param {
    lr_mult: 1.0
  }
  convolution_param {
    num_output: 256
    bias_term: false
    pad: 0
    kernel_size: 1
    stride: 1
  }
}
layer {
  name: "scale4b19_branch2a"
  type: "Scale"
  bottom: "res4b19_branch2a"
  top: "res4b19_branch2a"
  param {
    lr_mult: 0.0
    decay_mult: 0.0
  }
  param {
    lr_mult: 0.0
    decay_mult: 0.0
  }
  scale_param {
    bias_term: true
  }
}
layer {
  name: "res4b19_branch2a_relu"
  type: "ReLU"
  bottom: "res4b19_branch2a"
  top: "res4b19_branch2a"
}
layer {
  name: "res4b19_branch2b"
  type: "Convolution"
  bottom: "res4b19_branch2a"
  top: "res4b19_branch2b"
  param {
    lr_mult: 1.0
  }
  convolution_param {
    num_output: 256
    bias_term: false
    pad: 1
    kernel_size: 3
    stride: 1
  }
}
layer {
  name: "scale4b19_branch2b"
  type: "Scale"
  bottom: "res4b19_branch2b"
  top: "res4b19_branch2b"
  param {
    lr_mult: 0.0
    decay_mult: 0.0
  }
  param {
    lr_mult: 0.0
    decay_mult: 0.0
  }
  scale_param {
    bias_term: true
  }
}
layer {
  name: "res4b19_branch2b_relu"
  type: "ReLU"
  bottom: "res4b19_branch2b"
  top: "res4b19_branch2b"
}
layer {
  name: "res4b19_branch2c"
  type: "Convolution"
  bottom: "res4b19_branch2b"
  top: "res4b19_branch2c"
  param {
    lr_mult: 1.0
  }
  convolution_param {
    num_output: 1024
    bias_term: false
    pad: 0
    kernel_size: 1
    stride: 1
  }
}
layer {
  name: "scale4b19_branch2c"
  type: "Scale"
  bottom: "res4b19_branch2c"
  top: "res4b19_branch2c"
  param {
    lr_mult: 0.0
    decay_mult: 0.0
  }
  param {
    lr_mult: 0.0
    decay_mult: 0.0
  }
  scale_param {
    bias_term: true
  }
}
layer {
  name: "res4b19"
  type: "Eltwise"
  bottom: "res4b18"
  bottom: "res4b19_branch2c"
  top: "res4b19"
}
layer {
  name: "res4b19_relu"
  type: "ReLU"
  bottom: "res4b19"
  top: "res4b19"
}
layer {
  name: "res4b20_branch2a"
  type: "Convolution"
  bottom: "res4b19"
  top: "res4b20_branch2a"
  param {
    lr_mult: 1.0
  }
  convolution_param {
    num_output: 256
    bias_term: false
    pad: 0
    kernel_size: 1
    stride: 1
  }
}
layer {
  name: "scale4b20_branch2a"
  type: "Scale"
  bottom: "res4b20_branch2a"
  top: "res4b20_branch2a"
  param {
    lr_mult: 0.0
    decay_mult: 0.0
  }
  param {
    lr_mult: 0.0
    decay_mult: 0.0
  }
  scale_param {
    bias_term: true
  }
}
layer {
  name: "res4b20_branch2a_relu"
  type: "ReLU"
  bottom: "res4b20_branch2a"
  top: "res4b20_branch2a"
}
layer {
  name: "res4b20_branch2b"
  type: "Convolution"
  bottom: "res4b20_branch2a"
  top: "res4b20_branch2b"
  param {
    lr_mult: 1.0
  }
  convolution_param {
    num_output: 256
    bias_term: false
    pad: 1
    kernel_size: 3
    stride: 1
  }
}
layer {
  name: "scale4b20_branch2b"
  type: "Scale"
  bottom: "res4b20_branch2b"
  top: "res4b20_branch2b"
  param {
    lr_mult: 0.0
    decay_mult: 0.0
  }
  param {
    lr_mult: 0.0
    decay_mult: 0.0
  }
  scale_param {
    bias_term: true
  }
}
layer {
  name: "res4b20_branch2b_relu"
  type: "ReLU"
  bottom: "res4b20_branch2b"
  top: "res4b20_branch2b"
}
layer {
  name: "res4b20_branch2c"
  type: "Convolution"
  bottom: "res4b20_branch2b"
  top: "res4b20_branch2c"
  param {
    lr_mult: 1.0
  }
  convolution_param {
    num_output: 1024
    bias_term: false
    pad: 0
    kernel_size: 1
    stride: 1
  }
}
layer {
  name: "scale4b20_branch2c"
  type: "Scale"
  bottom: "res4b20_branch2c"
  top: "res4b20_branch2c"
  param {
    lr_mult: 0.0
    decay_mult: 0.0
  }
  param {
    lr_mult: 0.0
    decay_mult: 0.0
  }
  scale_param {
    bias_term: true
  }
}
layer {
  name: "res4b20"
  type: "Eltwise"
  bottom: "res4b19"
  bottom: "res4b20_branch2c"
  top: "res4b20"
}
layer {
  name: "res4b20_relu"
  type: "ReLU"
  bottom: "res4b20"
  top: "res4b20"
}
layer {
  name: "res4b21_branch2a"
  type: "Convolution"
  bottom: "res4b20"
  top: "res4b21_branch2a"
  param {
    lr_mult: 1.0
  }
  convolution_param {
    num_output: 256
    bias_term: false
    pad: 0
    kernel_size: 1
    stride: 1
  }
}
layer {
  name: "scale4b21_branch2a"
  type: "Scale"
  bottom: "res4b21_branch2a"
  top: "res4b21_branch2a"
  param {
    lr_mult: 0.0
    decay_mult: 0.0
  }
  param {
    lr_mult: 0.0
    decay_mult: 0.0
  }
  scale_param {
    bias_term: true
  }
}
layer {
  name: "res4b21_branch2a_relu"
  type: "ReLU"
  bottom: "res4b21_branch2a"
  top: "res4b21_branch2a"
}
layer {
  name: "res4b21_branch2b"
  type: "Convolution"
  bottom: "res4b21_branch2a"
  top: "res4b21_branch2b"
  param {
    lr_mult: 1.0
  }
  convolution_param {
    num_output: 256
    bias_term: false
    pad: 1
    kernel_size: 3
    stride: 1
  }
}
layer {
  name: "scale4b21_branch2b"
  type: "Scale"
  bottom: "res4b21_branch2b"
  top: "res4b21_branch2b"
  param {
    lr_mult: 0.0
    decay_mult: 0.0
  }
  param {
    lr_mult: 0.0
    decay_mult: 0.0
  }
  scale_param {
    bias_term: true
  }
}
layer {
  name: "res4b21_branch2b_relu"
  type: "ReLU"
  bottom: "res4b21_branch2b"
  top: "res4b21_branch2b"
}
layer {
  name: "res4b21_branch2c"
  type: "Convolution"
  bottom: "res4b21_branch2b"
  top: "res4b21_branch2c"
  param {
    lr_mult: 1.0
  }
  convolution_param {
    num_output: 1024
    bias_term: false
    pad: 0
    kernel_size: 1
    stride: 1
  }
}
layer {
  name: "scale4b21_branch2c"
  type: "Scale"
  bottom: "res4b21_branch2c"
  top: "res4b21_branch2c"
  param {
    lr_mult: 0.0
    decay_mult: 0.0
  }
  param {
    lr_mult: 0.0
    decay_mult: 0.0
  }
  scale_param {
    bias_term: true
  }
}
layer {
  name: "res4b21"
  type: "Eltwise"
  bottom: "res4b20"
  bottom: "res4b21_branch2c"
  top: "res4b21"
}
layer {
  name: "res4b21_relu"
  type: "ReLU"
  bottom: "res4b21"
  top: "res4b21"
}
layer {
  name: "res4b22_branch2a"
  type: "Convolution"
  bottom: "res4b21"
  top: "res4b22_branch2a"
  param {
    lr_mult: 1.0
  }
  convolution_param {
    num_output: 256
    bias_term: false
    pad: 0
    kernel_size: 1
    stride: 1
  }
}
layer {
  name: "scale4b22_branch2a"
  type: "Scale"
  bottom: "res4b22_branch2a"
  top: "res4b22_branch2a"
  param {
    lr_mult: 0.0
    decay_mult: 0.0
  }
  param {
    lr_mult: 0.0
    decay_mult: 0.0
  }
  scale_param {
    bias_term: true
  }
}
layer {
  name: "res4b22_branch2a_relu"
  type: "ReLU"
  bottom: "res4b22_branch2a"
  top: "res4b22_branch2a"
}
layer {
  name: "res4b22_branch2b"
  type: "Convolution"
  bottom: "res4b22_branch2a"
  top: "res4b22_branch2b"
  param {
    lr_mult: 1.0
  }
  convolution_param {
    num_output: 256
    bias_term: false
    pad: 1
    kernel_size: 3
    stride: 1
  }
}
layer {
  name: "scale4b22_branch2b"
  type: "Scale"
  bottom: "res4b22_branch2b"
  top: "res4b22_branch2b"
  param {
    lr_mult: 0.0
    decay_mult: 0.0
  }
  param {
    lr_mult: 0.0
    decay_mult: 0.0
  }
  scale_param {
    bias_term: true
  }
}
layer {
  name: "res4b22_branch2b_relu"
  type: "ReLU"
  bottom: "res4b22_branch2b"
  top: "res4b22_branch2b"
}
layer {
  name: "res4b22_branch2c"
  type: "Convolution"
  bottom: "res4b22_branch2b"
  top: "res4b22_branch2c"
  param {
    lr_mult: 1.0
  }
  convolution_param {
    num_output: 1024
    bias_term: false
    pad: 0
    kernel_size: 1
    stride: 1
  }
}
layer {
  name: "scale4b22_branch2c"
  type: "Scale"
  bottom: "res4b22_branch2c"
  top: "res4b22_branch2c"
  param {
    lr_mult: 0.0
    decay_mult: 0.0
  }
  param {
    lr_mult: 0.0
    decay_mult: 0.0
  }
  scale_param {
    bias_term: true
  }
}
layer {
  name: "res4b22"
  type: "Eltwise"
  bottom: "res4b21"
  bottom: "res4b22_branch2c"
  top: "res4b22"
}
layer {
  name: "res4b22_relu"
  type: "ReLU"
  bottom: "res4b22"
  top: "res4b22"
}
layer {
  name: "rpn_conv/3x3"
  type: "Convolution"
  bottom: "res4b22"
  top: "rpn/output"
  param {
    lr_mult: 1.0
  }
  param {
    lr_mult: 2.0
  }
  convolution_param {
    num_output: 256
    pad: 1
    kernel_size: 3
    stride: 1
    weight_filler {
      type: "gaussian"
      std: 0.00999999977648
    }
    bias_filler {
      type: "constant"
      value: 0.0
    }
  }
}
layer {
  name: "rpn_relu/3x3"
  type: "ReLU"
  bottom: "rpn/output"
  top: "rpn/output"
}
layer {
  name: "rpn_cls_score"
  type: "Convolution"
  bottom: "rpn/output"
  top: "rpn_cls_score"
  param {
    lr_mult: 1.0
  }
  param {
    lr_mult: 2.0
  }
  convolution_param {
    num_output: 18
    pad: 0
    kernel_size: 1
    stride: 1
    weight_filler {
      type: "gaussian"
      std: 0.00999999977648
    }
    bias_filler {
      type: "constant"
      value: 0.0
    }
  }
}
layer {
  name: "rpn_bbox_pred"
  type: "Convolution"
  bottom: "rpn/output"
  top: "rpn_bbox_pred"
  param {
    lr_mult: 1.0
  }
  param {
    lr_mult: 2.0
  }
  convolution_param {
    num_output: 36
    pad: 0
    kernel_size: 1
    stride: 1
    weight_filler {
      type: "gaussian"
      std: 0.00999999977648
    }
    bias_filler {
      type: "constant"
      value: 0.0
    }
  }
}
layer {
  name: "rpn_cls_score_reshape"
  type: "Reshape"
  bottom: "rpn_cls_score"
  top: "rpn_cls_score_reshape"
  reshape_param {
    shape {
      dim: 0
      dim: 2
      dim: -1
      dim: 0
    }
  }
}
layer {
  name: "rpn-data"
  type: "Python"
  bottom: "rpn_cls_score"
  bottom: "gt_boxes"
  bottom: "im_info"
  bottom: "data"
  top: "rpn_labels"
  top: "rpn_bbox_targets"
  top: "rpn_bbox_inside_weights"
  top: "rpn_bbox_outside_weights"
  python_param {
    module: "rpn.anchor_target_layer"
    layer: "AnchorTargetLayer"
    param_str: "\'feat_stride\': 16"
  }
}
layer {
  name: "rpn_loss_cls"
  type: "SoftmaxWithLoss"
  bottom: "rpn_cls_score_reshape"
  bottom: "rpn_labels"
  top: "rpn_cls_loss"
  loss_weight: 1.0
  propagate_down: true
  propagate_down: false
  loss_param {
    ignore_label: -1
    normalize: true
  }
}
layer {
  name: "rpn_loss_bbox"
  type: "SmoothL1Loss"
  bottom: "rpn_bbox_pred"
  bottom: "rpn_bbox_targets"
  bottom: "rpn_bbox_inside_weights"
  bottom: "rpn_bbox_outside_weights"
  top: "rpn_loss_bbox"
  loss_weight: 1.0
  smooth_l1_loss_param {
    sigma: 3.0
  }
}
layer {
  name: "rpn_cls_prob"
  type: "Softmax"
  bottom: "rpn_cls_score_reshape"
  top: "rpn_cls_prob"
}
layer {
  name: "rpn_cls_prob_reshape"
  type: "Reshape"
  bottom: "rpn_cls_prob"
  top: "rpn_cls_prob_reshape"
  reshape_param {
    shape {
      dim: 0
      dim: 18
      dim: -1
      dim: 0
    }
  }
}
layer {
  name: "proposal"
  type: "Python"
  bottom: "rpn_cls_prob_reshape"
  bottom: "rpn_bbox_pred"
  bottom: "im_info"
  top: "rpn_rois"
  python_param {
    module: "rpn.proposal_layer"
    layer: "ProposalLayer"
    param_str: "\'feat_stride\': 16"
  }
}
layer {
  name: "roi-data"
  type: "Python"
  bottom: "rpn_rois"
  bottom: "gt_boxes"
  top: "rois"
  top: "labels"
  top: "bbox_targets"
  top: "bbox_inside_weights"
  top: "bbox_outside_weights"
  python_param {
    module: "rpn.proposal_target_layer"
    layer: "ProposalTargetLayer"
    param_str: "\'num_classes\': 21"
  }
}
layer {
  name: "roi_pool5"
  type: "ROIPooling"
  bottom: "res4b22"
  bottom: "rois"
  top: "roi_pool5"
  roi_pooling_param {
    pooled_h: 14
    pooled_w: 14
    spatial_scale: 0.0625
  }
}
layer {
  name: "res5a_branch1"
  type: "Convolution"
  bottom: "roi_pool5"
  top: "res5a_branch1"
  param {
    lr_mult: 1.0
  }
  convolution_param {
    num_output: 2048
    bias_term: false
    pad: 0
    kernel_size: 1
    stride: 2
  }
}
layer {
  name: "scale5a_branch1"
  type: "Scale"
  bottom: "res5a_branch1"
  top: "res5a_branch1"
  param {
    lr_mult: 0.0
    decay_mult: 0.0
  }
  param {
    lr_mult: 0.0
    decay_mult: 0.0
  }
  scale_param {
    bias_term: true
  }
}
layer {
  name: "res5a_branch2a"
  type: "Convolution"
  bottom: "roi_pool5"
  top: "res5a_branch2a"
  param {
    lr_mult: 1.0
  }
  convolution_param {
    num_output: 512
    bias_term: false
    pad: 0
    kernel_size: 1
    stride: 2
  }
}
layer {
  name: "scale5a_branch2a"
  type: "Scale"
  bottom: "res5a_branch2a"
  top: "res5a_branch2a"
  param {
    lr_mult: 0.0
    decay_mult: 0.0
  }
  param {
    lr_mult: 0.0
    decay_mult: 0.0
  }
  scale_param {
    bias_term: true
  }
}
layer {
  name: "res5a_branch2a_relu"
  type: "ReLU"
  bottom: "res5a_branch2a"
  top: "res5a_branch2a"
}
layer {
  name: "res5a_branch2b"
  type: "Convolution"
  bottom: "res5a_branch2a"
  top: "res5a_branch2b"
  param {
    lr_mult: 1.0
  }
  convolution_param {
    num_output: 512
    bias_term: false
    pad: 1
    kernel_size: 3
    stride: 1
  }
}
layer {
  name: "scale5a_branch2b"
  type: "Scale"
  bottom: "res5a_branch2b"
  top: "res5a_branch2b"
  param {
    lr_mult: 0.0
    decay_mult: 0.0
  }
  param {
    lr_mult: 0.0
    decay_mult: 0.0
  }
  scale_param {
    bias_term: true
  }
}
layer {
  name: "res5a_branch2b_relu"
  type: "ReLU"
  bottom: "res5a_branch2b"
  top: "res5a_branch2b"
}
layer {
  name: "res5a_branch2c"
  type: "Convolution"
  bottom: "res5a_branch2b"
  top: "res5a_branch2c"
  param {
    lr_mult: 1.0
  }
  convolution_param {
    num_output: 2048
    bias_term: false
    pad: 0
    kernel_size: 1
    stride: 1
  }
}
layer {
  name: "scale5a_branch2c"
  type: "Scale"
  bottom: "res5a_branch2c"
  top: "res5a_branch2c"
  param {
    lr_mult: 0.0
    decay_mult: 0.0
  }
  param {
    lr_mult: 0.0
    decay_mult: 0.0
  }
  scale_param {
    bias_term: true
  }
}
layer {
  name: "res5a"
  type: "Eltwise"
  bottom: "res5a_branch1"
  bottom: "res5a_branch2c"
  top: "res5a"
}
layer {
  name: "res5a_relu"
  type: "ReLU"
  bottom: "res5a"
  top: "res5a"
}
layer {
  name: "res5b_branch2a"
  type: "Convolution"
  bottom: "res5a"
  top: "res5b_branch2a"
  param {
    lr_mult: 1.0
  }
  convolution_param {
    num_output: 512
    bias_term: false
    pad: 0
    kernel_size: 1
    stride: 1
  }
}
layer {
  name: "scale5b_branch2a"
  type: "Scale"
  bottom: "res5b_branch2a"
  top: "res5b_branch2a"
  param {
    lr_mult: 0.0
    decay_mult: 0.0
  }
  param {
    lr_mult: 0.0
    decay_mult: 0.0
  }
  scale_param {
    bias_term: true
  }
}
layer {
  name: "res5b_branch2a_relu"
  type: "ReLU"
  bottom: "res5b_branch2a"
  top: "res5b_branch2a"
}
layer {
  name: "res5b_branch2b"
  type: "Convolution"
  bottom: "res5b_branch2a"
  top: "res5b_branch2b"
  param {
    lr_mult: 1.0
  }
  convolution_param {
    num_output: 512
    bias_term: false
    pad: 1
    kernel_size: 3
    stride: 1
  }
}
layer {
  name: "scale5b_branch2b"
  type: "Scale"
  bottom: "res5b_branch2b"
  top: "res5b_branch2b"
  param {
    lr_mult: 0.0
    decay_mult: 0.0
  }
  param {
    lr_mult: 0.0
    decay_mult: 0.0
  }
  scale_param {
    bias_term: true
  }
}
layer {
  name: "res5b_branch2b_relu"
  type: "ReLU"
  bottom: "res5b_branch2b"
  top: "res5b_branch2b"
}
layer {
  name: "res5b_branch2c"
  type: "Convolution"
  bottom: "res5b_branch2b"
  top: "res5b_branch2c"
  param {
    lr_mult: 1.0
  }
  convolution_param {
    num_output: 2048
    bias_term: false
    pad: 0
    kernel_size: 1
    stride: 1
  }
}
layer {
  name: "scale5b_branch2c"
  type: "Scale"
  bottom: "res5b_branch2c"
  top: "res5b_branch2c"
  param {
    lr_mult: 0.0
    decay_mult: 0.0
  }
  param {
    lr_mult: 0.0
    decay_mult: 0.0
  }
  scale_param {
    bias_term: true
  }
}
layer {
  name: "res5b"
  type: "Eltwise"
  bottom: "res5a"
  bottom: "res5b_branch2c"
  top: "res5b"
}
layer {
  name: "res5b_relu"
  type: "ReLU"
  bottom: "res5b"
  top: "res5b"
}
layer {
  name: "res5c_branch2a"
  type: "Convolution"
  bottom: "res5b"
  top: "res5c_branch2a"
  param {
    lr_mult: 1.0
  }
  convolution_param {
    num_output: 512
    bias_term: false
    pad: 0
    kernel_size: 1
    stride: 1
  }
}
layer {
  name: "scale5c_branch2a"
  type: "Scale"
  bottom: "res5c_branch2a"
  top: "res5c_branch2a"
  param {
    lr_mult: 0.0
    decay_mult: 0.0
  }
  param {
    lr_mult: 0.0
    decay_mult: 0.0
  }
  scale_param {
    bias_term: true
  }
}
layer {
  name: "res5c_branch2a_relu"
  type: "ReLU"
  bottom: "res5c_branch2a"
  top: "res5c_branch2a"
}
layer {
  name: "res5c_branch2b"
  type: "Convolution"
  bottom: "res5c_branch2a"
  top: "res5c_branch2b"
  param {
    lr_mult: 1.0
  }
  convolution_param {
    num_output: 512
    bias_term: false
    pad: 1
    kernel_size: 3
    stride: 1
  }
}
layer {
  name: "scale5c_branch2b"
  type: "Scale"
  bottom: "res5c_branch2b"
  top: "res5c_branch2b"
  param {
    lr_mult: 0.0
    decay_mult: 0.0
  }
  param {
    lr_mult: 0.0
    decay_mult: 0.0
  }
  scale_param {
    bias_term: true
  }
}
layer {
  name: "res5c_branch2b_relu"
  type: "ReLU"
  bottom: "res5c_branch2b"
  top: "res5c_branch2b"
}
layer {
  name: "res5c_branch2c"
  type: "Convolution"
  bottom: "res5c_branch2b"
  top: "res5c_branch2c"
  param {
    lr_mult: 1.0
  }
  convolution_param {
    num_output: 2048
    bias_term: false
    pad: 0
    kernel_size: 1
    stride: 1
  }
}
layer {
  name: "scale5c_branch2c"
  type: "Scale"
  bottom: "res5c_branch2c"
  top: "res5c_branch2c"
  param {
    lr_mult: 0.0
    decay_mult: 0.0
  }
  param {
    lr_mult: 0.0
    decay_mult: 0.0
  }
  scale_param {
    bias_term: true
  }
}
layer {
  name: "res5c"
  type: "Eltwise"
  bottom: "res5b"
  bottom: "res5c_branch2c"
  top: "res5c"
}
layer {
  name: "res5c_relu"
  type: "ReLU"
  bottom: "res5c"
  top: "res5c"
}
layer {
  name: "pool5"
  type: "Pooling"
  bottom: "res5c"
  top: "pool5"
  pooling_param {
    pool: AVE
    kernel_size: 7
    stride: 1
  }
}
layer {
  name: "cls_score"
  type: "InnerProduct"
  bottom: "pool5"
  top: "cls_score"
  param {
    lr_mult: 1.0
  }
  param {
    lr_mult: 2.0
  }
  inner_product_param {
    num_output: 21
    weight_filler {
      type: "gaussian"
      std: 0.00999999977648
    }
    bias_filler {
      type: "constant"
      value: 0.0
    }
  }
}
layer {
  name: "bbox_pred"
  type: "InnerProduct"
  bottom: "pool5"
  top: "bbox_pred"
  param {
    lr_mult: 1.0
  }
  param {
    lr_mult: 2.0
  }
  inner_product_param {
    num_output: 84
    weight_filler {
      type: "gaussian"
      std: 0.0010000000475
    }
    bias_filler {
      type: "constant"
      value: 0.0
    }
  }
}
layer {
  name: "loss_cls"
  type: "SoftmaxWithLoss"
  bottom: "cls_score"
  bottom: "labels"
  top: "loss_cls"
  loss_weight: 1.0
  propagate_down: true
  propagate_down: false
}
layer {
  name: "loss_bbox"
  type: "SmoothL1Loss"
  bottom: "bbox_pred"
  bottom: "bbox_targets"
  bottom: "bbox_inside_weights"
  bottom: "bbox_outside_weights"
  top: "loss_bbox"
  loss_weight: 1.0
}
